[2023-07-14 22:56:08 INFO]
TreeLSTM(
  (user_embedding): Embedding(1047, 128)
  (fuse_embedding): Embedding(6346, 128)
  (user_embedding_o): Embedding(1047, 128)
  (fuse_embedding_o): Embedding(6346, 128)
  (time_pos_encoder): Embedding(600, 256)
  (time_pos_encoder_o): Embedding(600, 256)
  (embed_dropout): Dropout(p=0.2, inplace=False)
  (model_dropout): Dropout(p=0.4, inplace=False)
  (cell): Cell(
    (W_f): Linear(in_features=256, out_features=512, bias=False)
    (U_f): Linear(in_features=1536, out_features=1536, bias=False)
    (W_iou): Linear(in_features=256, out_features=1536, bias=False)
    (U_iou): Linear(in_features=1536, out_features=1536, bias=False)
    (transformer_encoder): TransformerEncoder(
      (layers): ModuleList(
        (0-1): 2 x TransformerEncoderLayer(
          (self_attn): MultiheadAttention(
            (out_proj): NonDynamicallyQuantizableLinear(in_features=512, out_features=512, bias=True)
          )
          (linear1): Linear(in_features=512, out_features=512, bias=True)
          (dropout): Dropout(p=0.4, inplace=False)
          (linear2): Linear(in_features=512, out_features=512, bias=True)
          (norm1): LayerNorm((512,), eps=1e-05, elementwise_affine=True)
          (norm2): LayerNorm((512,), eps=1e-05, elementwise_affine=True)
          (dropout1): Dropout(p=0.4, inplace=False)
          (dropout2): Dropout(p=0.4, inplace=False)
        )
      )
    )
  )
  (cell_o): Cell(
    (W_f): Linear(in_features=256, out_features=512, bias=False)
    (U_f): Linear(in_features=1536, out_features=1536, bias=False)
    (W_iou): Linear(in_features=256, out_features=1536, bias=False)
    (U_iou): Linear(in_features=1536, out_features=1536, bias=False)
    (transformer_encoder): TransformerEncoder(
      (layers): ModuleList(
        (0-1): 2 x TransformerEncoderLayer(
          (self_attn): MultiheadAttention(
            (out_proj): NonDynamicallyQuantizableLinear(in_features=512, out_features=512, bias=True)
          )
          (linear1): Linear(in_features=512, out_features=512, bias=True)
          (dropout): Dropout(p=0.4, inplace=False)
          (linear2): Linear(in_features=512, out_features=512, bias=True)
          (norm1): LayerNorm((512,), eps=1e-05, elementwise_affine=True)
          (norm2): LayerNorm((512,), eps=1e-05, elementwise_affine=True)
          (dropout1): Dropout(p=0.4, inplace=False)
          (dropout2): Dropout(p=0.4, inplace=False)
        )
      )
    )
  )
  (decoder_POI): Linear(in_features=512, out_features=4980, bias=True)
  (decoder_cat): Linear(in_features=512, out_features=318, bias=True)
  (decoder_coo): Linear(in_features=512, out_features=1024, bias=True)
  (decoder_POI_o): Linear(in_features=512, out_features=4980, bias=True)
  (decoder_cat_o): Linear(in_features=512, out_features=318, bias=True)
  (decoder_coo_o): Linear(in_features=512, out_features=1024, bias=True)
)
[2023-07-14 22:56:08 INFO]
Adam (
Parameter Group 0
    amsgrad: False
    betas: (0.9, 0.999)
    capturable: False
    differentiable: False
    eps: 1e-08
    foreach: None
    fused: None
    initial_lr: 0.001
    lr: 0.001
    maximize: False
    weight_decay: 0.0001
)
[2023-07-14 23:03:56 INFO]************************  Training epoch: 1/120  ************************
…
