[2023-05-10 16:18:52 INFO]
TreeLSTM(
  (user_embedding): Embedding(1047, 128)
  (POI_embedding): Embedding(4980, 128)
  (cat_embedding): Embedding(318, 32)
  (coo_embedding): Embedding(1024, 32)
  (l1): SineActivation()
  (dropout): Dropout(p=0.4, inplace=False)
  (cell): NaryTreeLSTMCell(
    (W_f): Linear(in_features=352, out_features=512, bias=False)
    (U_f): Linear(in_features=1536, out_features=1536, bias=False)
    (W_iou): Linear(in_features=352, out_features=1536, bias=False)
    (U_iou): Linear(in_features=1536, out_features=1536, bias=False)
    (transformer_encoder): TransformerEncoder(
      (layers): ModuleList(
        (0-1): 2 x TransformerEncoderLayer(
          (self_attn): MultiheadAttention(
            (out_proj): NonDynamicallyQuantizableLinear(in_features=512, out_features=512, bias=True)
          )
          (linear1): Linear(in_features=512, out_features=1024, bias=True)
          (dropout): Dropout(p=0.3, inplace=False)
          (linear2): Linear(in_features=1024, out_features=512, bias=True)
          (norm1): LayerNorm((512,), eps=1e-05, elementwise_affine=True)
          (norm2): LayerNorm((512,), eps=1e-05, elementwise_affine=True)
          (dropout1): Dropout(p=0.3, inplace=False)
          (dropout2): Dropout(p=0.3, inplace=False)
        )
      )
    )
  )
  (decoder_POI): Linear(in_features=512, out_features=4980, bias=True)
  (decoder_cat): Linear(in_features=512, out_features=318, bias=True)
)
[2023-05-10 16:21:31 INFO]************************  Training epoch: 1/60  ************************
[2023-05-10 16:21:31 INFO]Current epoch's mean loss: 13.757440653714267
[2023-05-10 16:21:31 INFO]acc@1: 0.00995255912580695	acc@5: 0.024304202462211707	acc@10: 0.03483868669160333	acc@20: 0.0506331364942122	mrr: 0.0	mAP: 0.017341561547465092
[2023-05-10 16:21:39 INFO]================================ Testing ================================
…
