[2023-05-03 11:23:02 INFO]
TreeLSTM(
  (user_embedding): Embedding(1047, 128)
  (POI_embedding): Embedding(4980, 128)
  (cat_embedding): Embedding(318, 32)
  (l1): SineActivation()
  (dropout): Dropout(p=0.5, inplace=False)
  (cell): TreeLSTMCell(
    (W_f): Linear(in_features=320, out_features=128, bias=False)
    (W_iou): Linear(in_features=320, out_features=384, bias=False)
    (U_f): Linear(in_features=384, out_features=384, bias=False)
    (U_iou): Linear(in_features=384, out_features=384, bias=False)
  )
  (decoder_POI): Linear(in_features=128, out_features=4980, bias=True)
  (decoder_time): Linear(in_features=128, out_features=1, bias=True)
  (decoder_cat): Linear(in_features=128, out_features=318, bias=True)
)
[2023-05-03 11:28:44 INFO]************************  Training epoch: 1/200  ************************
[2023-05-03 11:28:44 INFO]Current epoch's mean loss: 14.09466337327183
[2023-05-03 11:28:44 INFO]acc@1: 0.005047481245864192	acc@5: 0.01901358936822412	acc@10: 0.02982619987096406	acc@20: 0.045691558868753576	mrr: 0.0	mAP: 0.0
[2023-05-03 11:29:11 INFO]---------------------------- validation ----------------------------
…
